nntest.pt (torch, 329427 bytes, 10 tensors)

weight f4 [6, 1, 3, 3]
-0.096037805 -0.36207196 0.0999046 -0.1087738 0.40091386 0.19916931 -0.11782543 0.09976196
0.4127372 -0.5946382 -0.4187052 0.4857498 0.892559 1.084737 0.6390283 0.4192212
0.6626452 0.054390304 0.69462204 0.6552448 0.2183727 0.30589402 -0.06802211 -0.2699649
0.30504704 0.28934917 -0.051013805 0.24017893 -0.0870874 -0.013226959 -0.29317597 0.20560782
0.12029804 -0.1780465 -0.46231377 -0.5480142 -0.33723277 0.31391963 0.076981895 0.21404375
0.2783914 0.45244914 0.2596754 0.34690052 -0.00246547 -0.44639227 -0.15922183 -0.6478685
-0.8658875 -0.7202855 -0.87720454 -0.8101073 -0.7544189 -0.7614237
00000000: 78af c4bd 7f61 b9be c89a cc3d ccc4 debd
00000010: 9544 cd3e 0af3 4b3e 764e f1bd 0050 cc3d
00000020: 4a52 d33e 363a 18bf 8760 d6be 33b4 f83e
00000030: bf7e 643f a9d8 8a3f 5c97 233f 29a4 d63e
00000040: 1ea3 293f 5ec8 5e3d c0d2 313f 20be 273f
00000050: 189d 5f3e 249e 9c3e 2d4f 8bbd d738 8abe
00000060: 202f 9c3e 9325 943e daf3 50bd 77f1 753e
00000070: e15a b2bd e3b5 58bc 291b 96be db8a 523e
00000080: d25e f63d d251 36be 64b4 ecbe a94a 0cbf
00000090: c6a9 acbe 13ba a03e afa8 9d3d 492e 5b3e
000000a0: 5189 8e3e 6aa7 e73e 2df4 843e f29c b13e
000000b0: b993 21bb 878d e4be 0c0b 23be b6da 25bf
000000c0: ceaa 5dbf a164 38bf 7a90 60bf 3163 4fbf
000000d0: 9921 41bf aaec 42bf

bias f4 [6]
0.26608348 1.6277217 1.0178727 0.17433715 0.29087752 0.7004413
00000000: 183c 883e 2f59 d03f a749 823f 7085 323e
00000010: e6ed 943e 1f50 333f

weight f4 [16, 6, 3, 3]
-0.062839136 0.009598255 -0.08875549 0.11964734 -0.006052002 -0.061126158 0.04121858 0.022266744
-0.011078816 -0.021265266 0.2679779 0.061710354 0.26569954 0.07851175 -0.012766532 -0.1535984
0.06886439 -0.049410246 0.0116923535 0.14871103 0.08066546 0.10134514 0.06623263 0.07487512
-0.087470956 -0.019208325 0.08690695 -0.104550146 -0.047267444 0.022814767 0.10200717 0.125576
0.10580643 0.050920535 -0.07355016 -0.06200698 -0.13364561 0.074456036 -0.08907839 0.16649038
-0.054665565 -0.04352286 -0.18326141 -0.07687564 -0.08163917 0.18624978 0.0241066 -0.057142586
-0.23541358 -0.04678573 -0.059213404 0.1872841 -0.009809337 -0.11564412 0.03465566 0.0496129
0.023867738 -0.068103254 -0.1379182 0.09957409 -0.13850668 -0.012001299 0.17608583 0.013195408
-0.13420935 0.029046247 0.024662338 -0.14814562 0.12751333 -0.05022172 -0.1043929 0.18930912
-0.061362892 0.041295044 -0.07159626 -0.029327817 -0.022047322 -0.03949816 0.14525065 -0.11646389
4.7134465e-05 -0.12850289 0.01076816 0.060543783 0.02925053 0.13857967 0.11246903 0.032723803
0.1316755 -0.047932927 0.08903413 -0.09262631 0.04031733 0.10704368 0.11675528 0.08246396
0.019294364 0.11088209 0.08947271 -0.13721891 -0.07254579 0.16991043 -0.16324419 0.013444476
0.021595305 0.14343312 -0.054113805 0.012977457 0.007847555 -0.12328612 -0.108716875 -0.114779875
-0.01749556 -0.09853695 -0.034994587 -0.07589805 -0.0071273185 -0.13506606 -0.1347461 0.017159492
-0.069752835 0.04334852 -0.100078434 0.10593338 -0.00018519914 0.041562025 -0.02029263 0.11638048
-0.124213085 -0.123848826 -0.09429432 -0.13003555 0.036983177 -0.032342378 0.036520235 -0.1353455
-0.12997325 -0.082544476 -0.06252312 0.13410191 0.02204106 0.13445368 -0.0069500683 -0.09659106
-0.10057998 0.061769217 0.0018435011 -0.08242962 0.02012414 0.014457417 -0.025226422 0.047913857
-0.082112126 -0.09150274 0.018527607 -0.024714576 0.11194502 0.0023251506 0.034589466 -0.028188111
-0.016015597 -0.05794789 -0.0018142379 0.053169433 0.06125841 -0.055633374 0.06390233 0.09020845
0.09766621 0.047776178 -0.05870487 -0.15760036 0.07890055 0.095717244 -0.24376357 0.179024
0.2831239 0.1970969 0.33806324 -0.13837585 -0.024526875 0.06386165 0.2709164 -0.02715486
0.048305303 0.2962342 -0.06197262 0.06862029 0.23035263 0.16877303 -0.05083257 -0.0898334
-0.072703205 0.015630908 -0.09052905 -0.15840971 0.02515972 -0.1301828 0.079555415 -0.12948053
0.0697219 0.0132442955 0.23750786 0.21766342 0.15209 0.1001875 -0.009803267 0.12655306
0.10902631 -0.38434672 0.3112407 -0.1319676 -0.34157673 -0.016760902 -0.4684236 0.049798425
-0.071756534 0.10386698 0.11320396 -0.10313801 -0.07116836 0.051244378 0.04133573 0.06727913
-0.022385325 0.31135574 0.2579539 0.5682246 0.12822819 0.10703004 0.2426063 -0.16453007
-0.0064752665 0.10848762 0.031787198 0.0701524 0.051945154 0.14431104 0.22328246 0.052228034
-0.10736958 -0.21395716 -0.13880107 0.001210013 -0.0547406 0.0009070938 0.0073541296 0.15884195
-0.036548518 0.04379661 0.087430805 -0.14821702 -0.026610037 0.024257602 0.082604975 -0.062433913
00000000: ceb1 80bd 0042 1d3c 70c5 b5bd aa09 f53d
00000010: df4f c6bb 6c5f 7abd d0d4 283d bf68 b63c
00000020: ec83 35bc 7f34 aebc 6634 893e ffc3 7c3d
00000030: c509 883e c5ca a03d b72a 51bc e648 1dbe
00000040: c608 8d3d 6662 4abd 4991 3f3c b447 183e
00000050: ef33 a53d 0a8e cf3d f9a4 873d 2058 993d
00000060: f923 b3bd c75a 9dbc 45fc b13d 631e d6bd
00000070: 829b 41bd 09e6 ba3c 23e9 d03d ff96 003e
00000080: 0bb1 d83d 0d92 503d 77a1 96bd 08fb 7dbd
00000090: 65da 08be 687c 983d bb6e b6bd 747c 2a3e
000000a0: 00e9 5fbd 0745 32bd e1a8 3bbe fa70 9dbd
000000b0: 7032 a7bd 43b8 3e3e 347b c53c 580e 6abd
000000c0: 4210 71be 65a2 3fbd c189 72bd 67c7 3f3e
000000d0: 57b7 20bc d3d6 ecbd 18f3 0d3d e536 4b3d
000000e0: 4686 c33c b879 8bbd 6e3a 0dbe 80ed cb3d
000000f0: b2d4 0dbe 19a1 44bc d84f 343e 8d31 583c
00000100: 2d6e 09be 65f2 ed3c ac08 ca3c 7cb3 17be
00000110: db92 023e 4ab5 4dbd f2cb d5bd 40da 413e
00000120: a857 7bbd fe24 293d 0fa1 92bd e440 f0bc
00000130: 969c b4bc d3c8 21bd 96bc 143e 9f84 eebd
00000140: 3fb2 4538 4396 03be f06c 303c c2fc 773d
00000150: cf9e ef3c d4e7 0d3e 2a56 e63d 6509 063d
00000160: f1d5 063e 5155 44bd 8757 b63d ddb2 bdbd
00000170: c923 253d b839 db3d 641d ef3d dde2 a83d
00000180: 370f 9e3c 2616 e33d 783d b73d 1d83 0cbe
00000190: e392 94bd 00fd 2d3e 7c29 27be 3846 5c3c
000001a0: a3e8 b03c 22e0 123e 70a6 5dbd 669f 543c
000001b0: 0893 003c 6f7d fcbd f4a6 debd b611 ebbd
000001c0: d952 8fbc becd c9bd 7c56 0fbd 7070 9bbd
000001d0: 488c e9bb c24e 0abe e2fa 09be 1092 8c3c
000001e0: 93da 8ebd 388e 313d ecf5 ccbd 9af3 d83d
000001f0: 0432 42b9 f13c 2a3d bb3c a6bc e458 ee3d
00000200: 6e63 febd 74a4 fdbd 611d c1bd 0a28 05be
00000210: ac7b 173d 7179 04bd 3e96 153d 0398 0abe
00000220: b517 05be 140d a9bd 1f0c 80bd 0352 093e
00000230: 748f b43c 3aae 093e 66bd e3bb 89d1 c5bd
00000240: e0fc cdbd b801 7d3d a2a1 f13a dcd0 a8bd
00000250: 61db a43c cdde 6c3c a4a7 cebc 5241 443d
00000260: 672a a8bd ca65 bbbd 35c7 973c 3976 cabc
00000270: 6e43 e53d 8e61 183b afad 0d3d c1ea e6bc
00000280: 2433 83bc c45a 6dbd b9cb edba 31c8 593d
00000290: 19ea 7a3d d2df 63bd 3adf 823d 35bf b83d
000002a0: 3905 c83d f4b0 433d 8574 70bd fd61 21be
000002b0: 9d96 a13d 6707 c43d 289d 79be 1152 373e
000002c0: 9ef5 903e c5d3 493e a016 ad3e 66b2 0dbe
000002d0: 96ec c8bc e6c9 823d 8eb5 8a3e de73 debc
000002e0: c8db 453d 02ac 973e 01d7 7dbd cb88 8c3d
000002f0: 8fe1 6b3e d6d2 2c3e d035 50bd 93fa b7bd
00000300: 6be5 94bd 640c 803c 4b67 b9bd 2836 22be
00000310: c21b ce3c a44e 05be f3ed a23d 8b96 04be
00000320: 5bca 8e3d 9afe 583c 4335 733e 29e3 5e3e
00000330: 7bbd 1b3e 1b2f cd3d e29d 20bc 2097 013e
00000340: 3049 df3d 18c9 c4be f15a 9f3e 8422 07be
00000350: 25e3 aebe 294e 89bc 38d5 efbe 6ff9 4b3d
00000360: 17f5 92bd 36b8 d43d 7ad7 e73d 053a d3bd
00000370: b8c0 91bd a0e5 513d a84f 293d a4c9 893d
00000380: 6e61 b7bc 056a 9f3e 8912 843e 2b77 113f
00000390: 404e 033e 9132 db3d c96d 783e 927a 28be
000003a0: 792e d4bb c22e de3d 4b33 023d 10ac 8f3d
000003b0: 71c4 543d 46c6 133e 28a4 643e 10ed 553d
000003c0: 95e4 dbbd 9617 5bbe de21 0ebe 4d99 9e3a
000003d0: ae37 60bd 09ca 6d3a e9fa f03b 77a7 223e
000003e0: e6b3 15bd 1364 333d ec0e b33d 34c6 17be
000003f0: 4bfd d9bc e1b7 c63c cc2c a93d b4ba 7fbd

bias f4 [16]
0.182673 0.011053673 -0.07922608 0.07834546 0.042367674 -0.08581729 0.0039899163 0.060803592
0.09493067 0.11870852 0.1680107 0.047799464 -0.0008420687 -0.13907848 0.106587306 0.015483107
00000000: a20e 3b3e 771a 353c 4841 a2bd 9673 a03d
00000010: ba89 2d3d fac0 afbd d8bd 823b 300d 793d
00000020: 036b c23d 741d f33d ff0a 2c3e 5fc9 433d
00000030: 46be 5cba 976a 0ebe 724a da3d dcac 7d3c

weight f4 [120, 576]
0.002234632 0.026071629 -0.015609604 0.005431193 -0.012499124 0.019830747 0.02838366 -0.0018259065
0.015400293 0.007003524 -0.006946248 -0.004268741 0.03808341 -0.03030225 -0.021384547 -0.047447376
-0.026499894 -0.008173489 0.053253777 0.022590363 0.034986615 -0.051836397 0.024014696 -0.033259593
0.003066941 -0.03283381 0.020932702 -0.016710853 0.0275435 0.030814009 0.035051562 -0.04333203
0.047381945 -0.0006060888 0.044590235 -0.027032752 -0.0014530324 0.03244907 -0.009300945 0.00023241437
0.018151619 0.02394037 0.026023032 -0.02526698 -0.0014221062 0.018827561 0.012117279 -0.036016397
0.04505138 0.00015710773 -0.039754845 0.036375467 0.020966085 0.011579171 -0.004844071 -0.00017179328
0.02778942 -0.0038180393 0.021766026 0.035163958 -0.019723367 -0.019850675 0.014221462 0.025253331
-0.02159957 0.027595403 -0.0049198787 0.029165132 0.00962856 0.0012600819 0.015431623 0.0037018843
-0.041280944 -0.029296448 0.041634932 -0.011610347 -0.0132117225 -0.026626877 0.015179821 -0.01844599
-0.014143744 -0.0014710979 -0.011020042 -0.03180424 0.039319877 -0.029685894 -0.03914745 -0.01173909
0.022296205 -0.034783095 0.039605867 0.031179933 -0.031636927 0.032720517 0.027102254 0.006201299
0.021272914 0.038845044 0.022046635 0.014611385 -0.013217248 0.014086649 0.024398241 0.0005561224
-0.03217163 -0.010539502 -0.0029779337 -0.032976285 0.03872029 -0.044996366 0.013219991 -0.018045029
-0.020869821 -0.013385839 -0.009961954 -0.047622286 0.019897802 -0.0027091196 0.00465585 -0.029766157
0.044145755 0.032605834 0.021720415 0.0287583 -0.059994027 -0.02203326 0.03341738 0.023475194
-0.076908164 0.009350359 0.028474098 -0.012921897 -0.008865276 0.035678256 -0.04365884 -0.009983137
0.04350428 0.026655471 -0.00829883 -0.03714175 0.009814277 -0.0033730958 -0.03082327 -0.023521502
-0.013283522 0.017980115 -0.011853843 0.031889103 -0.008446807 0.017198075 -0.0056862785 0.0400732
0.014985745 -0.011635908 0.015782446 -0.0177678 0.027598426 -0.0729733 -0.038580157 -0.035396088
-0.049535986 -0.03475052 0.026374975 0.0363489 0.0026612782 -0.011279372 -0.010696852 -0.0364698
0.013107662 -0.017929275 0.0055972757 0.028244799 0.02522559 0.03632433 -0.0056694844 -0.04300255
-0.0037360429 0.051598854 -0.018158596 -0.004674017 -0.016686361 -0.03168881 -0.01517272 -0.027079547
-0.02031912 0.042229723 0.046244092 -0.012930075 0.0035860504 0.016895883 -0.014305696 -0.030957194
-0.01778997 -0.0029744469 -0.008161473 -0.033515528 -0.020316932 0.012083245 -0.020924533 -0.04509031
-0.03275826 0.027141629 -0.035706095 -0.036681168 -0.006242069 -0.019825408 -0.006134425 0.033367585
-0.0064890906 7.9209705e-05 0.013620584 -0.011362228 0.021664979 0.034374982 0.0197315 -0.0060522263
-0.02214858 0.015727388 0.029980408 -0.008514496 -0.022505373 0.020997096 0.037975244 -0.026388787
0.001226531 -0.032079045 -0.035742335 0.012563623 -0.034743194 -0.020249646 -0.035067245 -0.015109087
-0.029911958 -0.03702302 0.029539134 -0.06518945 0.029842194 0.012506025 -0.0043144217 -0.026476268
0.017467542 0.031621177 0.04472868 -0.010984405 0.07403137 0.0032319676 0.034275 0.029348103
0.030362274 0.035206147 0.049215257 0.039637696 -0.013691609 -0.04114726 0.026343178 0.027977938
00000000: e772 123b 2b94 d53c 6dbf 7fbc 26f8 b13b
00000010: 20c9 4cbc 1774 a23c d984 e83c 4153 efba
00000020: 8351 7c3c d17d e53b 5a9d e3bb cbe0 8bbb
00000030: 5afd 1b3d 6d3c f8bc a52e afbc 2e58 42bd
00000040: 4e16 d9bc 19ea 05bc a220 5a3d 6d0f b93c
00000050: 204e 0f3d 6752 54bd 78ba c43c 363b 08bd
00000060: bbfe 483b bf7c 06bd 0f7b ab3c 33e5 88bc
00000070: e8a2 e13c a96d fc3c 3a92 0f3d ed7c 31bd
00000080: 9213 423d eee1 1eba 40a4 363d ca73 ddbc
00000090: ad73 beba 51e9 043d fe62 18bc 42b4 7339
000000a0: b4b2 943c 981e c43c 412e d53c b3fc cebc
000000b0: f765 baba 423c 9a3c 8d87 463c ee85 13bd
000000c0: cc87 383d 49bd 2439 fad5 22bd 71fe 143d
000000d0: 11c1 ab3c 90b6 3d3c 03bb 9ebb 6823 34b9
000000e0: a3a6 e33c 1238 7abb aa4e b23c 1508 103d
000000f0: e692 a1bc e29d a2bc 2301 693c 13e0 ce3c
00000100: 95f1 b0bc c10f e23c ef36 a1bb b7eb ee3c
00000110: 1cc1 1d3c 5529 a53a ebd4 7c3c 509b 723b
00000120: 3516 29bd 1bff efbc 6489 2a3d 5339 3ebc
00000130: fb75 58bc 9c20 dabc c9b4 783c 0b1c 97bc
00000140: 29bb 67bc dbd1 c0ba 688d 34bc 2a45 02bd
00000150: e10d 213d d52f f3bc 1459 20bd 5055 40bc
00000160: 88a6 b63c b878 0ebd c339 223d 0f6d ff3c
00000170: b995 01bd f305 063d 8c05 de3c 4434 cb3b
00000180: 8944 ae3c fb1b 1f3d 259b b43c 9764 6f3c
00000190: 288d 58bc b0cb 663c d2de c73c bec8 113a
000001a0: 66c6 03bd e0ad 2cbc 7029 43bb 2412 07bd
000001b0: 2b99 1e3d 1c4e 38bd a998 583c 2bd3 93bc
000001c0: 30f7 aabc 4750 5bbc 7737 23bc 960f 43bd
000001d0: b700 a33c 7c8b 31bb 1a90 983b 28d8 f3bc
000001e0: 2ed2 343d b28d 053d 03ef b13c 8796 eb3c
000001f0: 4cbc 75bd 187f b4bc aae0 083d 0d4f c03c
00000200: 0782 9dbd 4032 193c 8342 e93c 5db6 53bc
00000210: aa3f 11bc 5d23 123d 9dd3 32bd 5090 23bc
00000220: 8b31 323d 935c da3c d1f7 07bc f321 18bd
00000230: 10cc 203c 280f 5dbb 1581 fcbc 2ab0 c0bc
00000240: 21a3 59bc 094b 933c 9f36 42bc 269e 023d
00000250: 7a64 0abc fae2 8c3c f653 babb cc23 243d
00000260: c586 753c 89a4 3ebc 304a 813c c78d 91bc
00000270: 1816 e23c 0773 95bd 3a06 1ebd 7dfb 10bd
00000280: 3fe6 4abd 9056 0ebd 5510 d83c 96e2 143d
00000290: d768 2e3b 1dcd 38bc d941 2fbc 5b61 15bd
000002a0: 85c1 563c 6ae0 92bc 5a69 b73b a361 e73c
000002b0: e6a5 ce3c d2c8 143d 15c7 b9bb 7123 30bd
000002c0: 66d8 74bb 5259 533d 56c1 94bc 7f28 99bb
000002d0: d6b1 88bc 20cc 01bd 0097 78bc edd5 ddbc
000002e0: 4874 a6bc 13f9 2c3d 726a 3d3d aad8 53bc
000002f0: f103 6b3b 3c69 8a3c 7062 6abc f199 fdbc
00000300: 45bc 91bc f0ee 42bb b3b7 05bc 9447 09bd
00000310: b26f a6bc cef8 453c ed69 abbc 9eb0 38bd
00000320: 862d 06bd 1f58 de3c 8e40 12bd fe3e 16bd
00000330: 458a ccbb e568 a2bc 4903 c9bb 73ac 083d
00000340: 70a2 d4bb 631d a638 df28 5f3c a328 3abc
00000350: c17a b13c c8cc 0c3d f4a3 a13c c151 c6bb
00000360: f070 b5bc b9d6 803c 7999 f53c 6280 0bbc
00000370: 305d b8bc 1a02 ac3c ee8b 1b3d 4c2d d8bc
00000380: 8dc3 a03a 5165 03bd 8e66 12bd a7d7 4d3c
00000390: e14e 0ebd 96e2 a5bc aca2 0fbd 1b8c 77bc
000003a0: ec09 f5bc 73a5 17bd 0efc f13c 0c82 85bd
000003b0: 9e77 f43c 12e6 4c3c fe5f 8dbb c2e4 d8bc
000003c0: 1718 8f3c 3585 013d 6c35 373d eff7 33bc
000003d0: c29d 973d 6bcf 533b f163 0c3d 6f6b f03c
000003e0: 4eba f83c 5234 103d f095 493d 235b 223d
000003f0: c552 60bc 088a 28bd a6cd d73c fd31 e53c

bias f4 [120]
-0.013325024 0.044819035 -0.021844069 0.014987024 -0.015914675 0.0054654605 0.012409969 -0.022856867
-0.031357918 0.02061038 0.030140681 -0.021516008 -0.029021768 0.036359455 -0.0018472455 0.019488571
-0.037542623 0.022591617 -0.019739132 0.017754955 0.029967617 0.002728847 -0.01377773 -0.011335055
-0.032879498 0.007130163 0.029561581 -0.030039053 -0.03393646 0.0110940905 0.029921563 0.034134574
0.02054896 -0.01955248 -0.0053062644 -0.008018889 0.03873098 0.006220919 0.051509373 -0.0067952634
-0.047512695 0.035974205 -0.033460606 -0.019064542 -0.031171998 -9.2196125e-05 -0.025187949 0.037212387
0.027704919 -0.009737332 0.0059501864 -0.020043192 -0.0007531634 0.0499482 0.026006242 -0.0030531862
-0.04212013 -0.0046727033 -0.004972593 0.021142727 -0.016151873 0.014166388 0.04690897 -0.037109636
-0.011950111 -0.007928634 0.03474033 0.04190564 -0.014344902 -0.0046800664 0.020095643 0.04893757
-0.020762755 0.040940955 0.02518035 -0.01096611 -0.02492838 0.014644212 -0.028158873 0.015733426
0.0029223438 0.022131905 -0.013705271 0.009843932 -0.011717068 -0.022729797 -0.0066094496 -0.035530705
0.0023960131 0.0064782016 0.024350775 0.0045356946 -0.011202702 -0.035795394 -0.035209015 -0.03094377
0.0014494724 0.037611324 0.01778858 -0.033962782 -0.0051289047 -0.025105452 -0.033618692 -0.02682176
-0.019453 0.045040503 -0.011630013 0.03545052 -0.04237859 -0.018162511 -0.035093453 -0.0004256836
0.023667185 0.007558493 0.031666346 0.01643328 -0.01915362 -0.026141055 0.01350748 0.005417898
00000000: 3451 5abc 2a94 373d 55f2 b2bc 228c 753c
00000010: 7e5f 82bc 9b17 b33b 2f53 4b3c 533e bbbc
00000020: 2971 00bd 1ad7 a83c 97e9 f63c 5742 b0bc
00000030: 0fbf edbc a7ed 143d 461f f2ba 7fa6 9f3c
00000040: 4bc6 19bd 0e12 b93c f6b3 a1bc d772 913c
00000050: a67e f53c 75d6 323b fdbb 61bc abb6 39bc
00000060: a7ac 06bd 24a4 e93b 212b f23c 7614 f6bc
00000070: f500 0bbd fdc3 353c 111e f53c b2d0 0b3d
00000080: 4b56 a83c 862c a0bc 2ce0 adbb a961 03bc
00000090: 60a4 1e3d dad8 cb3b 7efb 523d cdaa debb
000000a0: ac9c 42bd b059 133d fd0d 09bd 3e2d 9cbc
000000b0: 6b5c ffbc 6b59 c1b8 f556 cebc 046c 183d
000000c0: 6df5 e23c 5589 1fbc c8f9 c23b 9f31 a4bc
000000d0: f16f 45ba 7c96 4c3d 0b0b d53c f717 48bb
000000e0: 2886 2cbd 7a1d 99bb 22f1 a2bb 8333 ad3c
000000f0: ef50 84bc 231a 683c 9f23 403d 4600 18bd
00000100: 66ca 43bc 1ae7 01bc e04b 0e3d 40a5 2b3d
00000110: e106 6bbc 3e5b 99bb 9e9f a43c c372 483d
00000120: a716 aabc b4b1 273d 0547 ce3c 33ab 33bc
00000130: 9a36 ccbc 47ee 6f3c 70ad e6bc 63e3 803c
00000140: cb84 3f3b f84d b53c 138c 60bc 7248 213c
00000150: f2f8 3fbc d733 babc 1594 d8bb a588 11bd
00000160: 6e06 1d3b 1847 d43b 477b c73c 2aa0 943b
00000170: 8a8b 37bc 319e 12bd 5437 10bd ca7d fdbc
00000180: 39fc bd3a 550e 1a3d 5bb9 913c 8f1c 0bbd
00000190: 5f10 a8bb f3a9 cdbc c1b3 09bd 4fb9 dbbc
000001a0: e65b 9fbc 647c 383d cf8b 3ebc 9134 113d
000001b0: 2c95 2dbd 8cc9 94bc 27be 0fbd 492e dfb9
000001c0: afe1 c13c 3cad f73b 92b4 013d 169f 863c
000001d0: 0de8 9cbc c425 d6bc 7a4e 5d3c 9f88 b13b

weight f4 [84, 120]
-0.08658529 -0.12809764 0.029954871 -0.025243198 -0.044386737 -0.008731356 0.101508215 0.012249763
-0.08148471 -0.028707214 0.057275254 -0.064954445 0.1481876 0.037605915 0.108750366 0.065465294
-0.0018898614 0.036507852 -0.081037596 0.0012342934 -0.06267533 -0.027760535 0.067114495 0.07441129
0.003331763 0.17400454 0.05074642 0.0027382427 -0.042999547 -0.03847729 -0.07720733 0.030511301
0.1698767 -0.020324573 -0.0779742 0.007310003 0.0838543 0.07937285 0.016171379 -0.045963563
-0.059206177 -0.027611936 0.06586838 -0.0065007545 0.018211495 0.15047377 -0.03252394 -0.005105101
0.0472728 -0.1501488 0.044301707 -0.02703671 0.013688516 -0.06403065 -0.05797247 -0.06161616
-0.06162486 0.08529805 0.051478807 0.167704 -0.083501115 0.06309115 0.10379639 0.111742854
-0.08664909 0.004828178 0.01437946 0.0022546405 0.034988526 0.070279665 0.027687136 -0.04337822
-0.023763148 0.12149903 0.054726724 -0.06298294 0.062229354 -0.09001191 0.03596942 0.010700821
-0.10158563 0.07784829 -0.05637035 0.18899587 -0.1393655 -0.092032835 -0.13555926 -0.020589953
-0.056490194 -0.088250294 -0.128166 -0.06368846 -0.025445407 0.041058686 -0.10918329 0.10887441
-0.16571091 0.042929087 -0.012890209 0.019069923 0.13862531 -0.02812869 0.115505524 0.10030867
-0.06637667 0.17750333 -0.13262576 0.079330064 -0.08573933 0.063112244 0.055538222 0.15113696
0.08758608 0.12459599 -0.09541976 0.02324469 -0.023148237 -0.01188395 0.025457194 -0.041715834
0.035425343 -0.06696651 0.009630526 0.017629204 0.0022720352 0.03046625 0.08964684 -0.054409612
0.07381715 -0.08005077 0.028173156 0.0007198976 0.12091621 0.016799519 0.059119083 -0.034781408
0.09966099 -0.03260077 -0.0026025183 0.08960595 -0.13299526 -0.034303993 -0.038274996 -0.023781648
-0.0731227 0.025063226 -0.1323481 0.08118783 0.1459556 0.02740505 0.050617013 -0.045281567
-0.029659925 0.09737156 0.08317515 0.032686427 0.079449296 -0.022975689 -0.048994284 -0.044430245
0.053295426 -0.115431115 0.0041948943 -0.057713933 -0.06464548 0.18518212 -0.033344254 -0.060111366
0.13967781 -0.079299636 0.04734097 0.052991267 0.046605386 0.1518005 -0.016794957 0.050936326
-0.060660027 0.016739335 -0.104019366 0.09189871 -0.0071805585 0.04658941 0.09152004 0.0691363
-0.0077431826 0.048826046 0.026028005 0.043342333 0.039999615 0.044882182 0.023116805 -0.04871127
-0.03561547 -0.06350275 0.0936784 0.10158823 0.057329513 0.015361497 0.096857026 -0.096906714
0.06798819 -0.024186902 0.051024728 -0.035966583 -0.123698704 -0.01906336 -0.056292254 -0.06674785
-0.053905305 0.03671626 -0.08059473 0.12890716 0.075135425 -0.075022094 -0.03919872 0.048476603
-0.0030431524 0.105998226 0.030268442 -0.00782228 0.093694 -0.012213069 0.020761196 0.13296767
0.07238828 0.06277757 -0.057854038 -0.03431776 -0.07520186 -0.17190771 0.067964554 -0.13641411
-0.0076915366 0.09983689 -0.012708724 0.03330594 -0.04964134 -0.0007578725 -0.039734982 0.0093217995
0.04477569 -0.085304484 -0.081228375 0.07252544 0.034273196 0.06838459 0.021776576 0.051993508
-0.015010312 0.02703061 -0.06408717 0.055051655 -0.042414058 -0.05340552 -0.018939367 -0.0037342203
00000000: a153 b1bd 072c 03be eb63 f53c d3ca cebc
00000010: dece 35bd f60d 0fbc 8ae3 cf3d 3bb3 483c
00000020: 75e1 a6bd 642b ebbc 7599 6a3d d606 85bd
00000030: 7dbe 173e a908 1a3d 83b8 de3d ab12 863d
00000040: 3ab5 f7ba 4289 153d 0af7 a5bd 04c8 a13a
00000050: ec5b 80bd 106a e3bc 5373 893d f264 983d
00000060: b559 5a3b 3f2e 323e 7adb 4f3d 1774 333b
00000070: 4b20 30bd 5d9a 1dbd e01e 9ebd d6f2 f93c
00000080: 28f4 2d3e b87f a6bc f0b0 9fbd c088 ef3b
00000090: cebb ab3d 3c8e a23d d779 843c 4a44 3cbd
000000a0: 2d82 72bd 6d32 e2bc 00e6 863d 4804 d5bb
000000b0: 4630 953c cc15 1a3e d337 05bd b148 a7bb
000000c0: 20a1 413d 9bc0 19be b575 353d 177c ddbc
000000d0: cc45 603c 8022 83bd 8a74 6dbd 3a61 7cbd
000000e0: 596a 7cbd beb0 ae3d 71db 523d 99ba 2b3e
000000f0: a202 abbd ef35 813d 3493 d43d 70d9 e43d
00000100: 1475 b1bd b135 9e3b d497 6b3c 97c2 133b
00000110: 2150 0f3d c9ee 8f3d 22d0 e23c 5cad 31bd
00000120: efaa c2bc 7cd4 f83d 2129 603d 33fd 80bd
00000130: 35e4 7e3d 2a58 b8bd ac54 133d 7f52 2f3c
00000140: 200c d0bd ed6e 9f3d 99e4 66bd 2288 413e
00000150: d4b5 0ebe b67b bcbd 0cd0 0abe 43ac a8bc
00000160: 4362 67bd 92bc b4bd f33d 03be 186f 82bd
00000170: e372 d0bc 272d 283d 7d9b dfbd 8cf9 de3d
00000180: 1fb0 29be 69d6 2f3d 7531 53bc 8738 9c3c
00000190: cbf3 0d3e 236e e6bc 298e ec3d a26e cd3d
000001a0: 7ef0 87bd 6fc3 353e 0ccf 07be cd77 a23d
000001b0: 1a98 afbd fe40 813d 0c7c 633d a6c3 1a3e
000001c0: 5560 b33d 2f2c ff3d 6f6b c3bd a66b be3c
000001d0: 5fa1 bdbc e6b4 42bc 9b8b d03c 39de 2abd
000001e0: 2a1a 113d bd25 89bd 5bc9 1d3c 1f6b 903c
000001f0: 6de6 143b 5b94 f93c c398 b73d 9ddc 5ebd
00000200: 722d 973d a8f1 a3bd 64cb e63c 83b7 3c3a
00000210: eba2 f73d 259f 893c da26 723d f376 0ebd
00000220: 101b cc3d 6388 05bd 038f 2abb 5383 b73d
00000230: e92f 08be 5882 0cbd 3ec6 1cbd bbd1 c2bc
00000240: 5bc1 95bd 6551 cd3c 4386 07be ce45 a63d
00000250: 6375 153e 8e80 e03c c953 4f3d 2a79 39bd
00000260: 5ff9 f2bc be6a c73d bc57 aa3d 34e2 053d
00000270: 50b6 a23d 8337 bcbc 3bae 48bd 7dfc 35bd
00000280: 4e4c 5a3d 2667 ecbd 5375 893b 7265 6cbd
00000290: d964 84bd 62a0 3d3e fc93 08bd 5637 76bd
000002a0: b307 0f3e d967 a2bd 9be8 413d 5f0d 593d
000002b0: 4ae5 3e3d 9771 1b3e 9495 89bc 9ca2 503d
000002c0: a676 78bd ee20 893c 1b08 d5bd 6435 bc3d
000002d0: e44a ebbb 8ad4 3e3d dc6e bb3d 5597 8d3d
000002e0: 86ba fdbb d2fd 473d af38 d53c bb87 313d
000002f0: a3d6 233d 61d6 373d 745f bd3c 7885 47bd
00000300: 87e1 11bd bb0d 82bd 76da bf3d 7d0d d03d
00000310: 5ad2 6a3d caae 7b3c fa5c c63d 0777 c6bd
00000320: 643d 8b3d 9c23 c6bc 4eff 503d b251 13bd
00000330: bf55 fdbd c32a 9cbc b592 66bd 19b3 88bd
00000340: cfcb 5cbd ca63 163d da0e a5bd 3d00 043e
00000350: 9ae0 993d 2fa5 99bd d68e 20bd 678f 463d
00000360: a06f 47bb 9915 d93d 86f5 f73c 0529 00bc
00000370: a4e2 bf3d 5319 48bc 6213 aa3c ad28 083e
00000380: 4e40 943d 8791 803d 5bf8 6cbd c890 0cbd
00000390: 6f03 9abd 9308 30be 0031 8b3d 24b0 0bbe
000003a0: 4909 fcbb 4977 cc3d 4038 50bc cf6b 083d
000003b0: b854 4bbd f6ab 46ba 26c1 22bd 76ba 183c
000003c0: b766 373d 1eb4 aebd 105b a6bd 3888 943d
000003d0: 0d62 0c3d 380d 8c3d ca64 b23c 25f7 543d
000003e0: d0ed 75bc 4c6f dd3c 2240 83bd d87d 613d
000003f0: 5dba 2dbd bfbf 5abd bb26 9bbc d2b9 74bb

bias f4 [84]
0.1122066 0.10488392 0.000292058 0.10306027 0.008430171 -0.03328027 -0.00994574 0.07007371
-0.0050692307 -0.07904516 0.05620196 0.09339164 0.08264161 0.108460896 0.059602268 0.022769831
0.07296284 -0.035708245 -0.023220073 0.0077776965 0.11059537 0.003116986 -0.050055295 -0.039367948
0.06336958 0.06265909 -0.0005120613 -0.032693893 -0.05086181 0.040821426 0.078775935 0.062485565
0.10960731 -0.047202826 0.022831207 -0.012533307 0.0326931 -0.036572497 -0.016995158 0.089168206
-0.07888707 -0.09470088 0.0675559 0.054756716 0.032879673 0.033097222 -0.05845462 0.024746943
0.096314155 0.068035 -0.025249561 0.06859225 -0.09206573 0.0560968 0.053654578 -0.08405258
-0.07950955 -0.051909436 0.030557128 -0.050139736 0.088589884 0.03421522 0.0942014 -0.07760877
0.043935902 0.004769893 0.021789066 0.07141312 -0.030467467 -0.045077365 -0.057439517 -0.082025096
0.023805937 0.09899428 -0.08277556 -0.08867095 0.11128582 0.073510125 0.0078987125 0.09452489
0.09883882 -0.10043293 -0.046347607 0.013447998
00000000: 93cc e53d 61cd d63d 5c1f 9939 4311 d33d
00000010: b31e 0a3c e450 08bd 75f3 22bc ce82 8f3d
00000020: ca1b a6bb 6ee2 a1bd 0734 663d 1e44 bf3d
00000030: 0140 a93d bf20 de3d 8221 743d cc87 ba3c
00000040: 8b6d 953d cf42 12bd 0638 bebc 0cdc fe3b
00000050: d37f e23d 5946 4c3b c806 4dbd 4940 21bd
00000060: e9c7 813d 6953 803d da3b 06ba 08ea 05bd
00000070: 7954 50bd 5e34 273d 4755 a13d ddf0 7f3d
00000080: cc79 e03d c057 41bd 8308 bb3c 8058 4dbc
00000090: 33e9 053d 0bcd 15bd 6e39 8bbc d29d b63d
000000a0: 8b8f a1bd 89f2 c1bd bf5a 8a3d 9448 603d
000000b0: d6ac 063d f490 073d 1d6e 6fbd 1aba ca3c
000000c0: 5b40 c53d ef55 8b3d 2bd8 cebc 187a 8c3d
000000d0: f58c bcbd c2c5 653d e7c4 5b3d c223 acbd
000000e0: e7d5 a2bd fd9e 54bd f152 fa3c 535f 4dbd
000000f0: 9d6e b53d 4225 0c3d aaec c03d 59f1 9ebd
00000100: 22f6 333d c34c 9c3b fc7e b23c 0b41 923d
00000110: e996 f9bc 0ba3 38bd b345 6bbd c6fc a7bd
00000120: ab04 c33c 83bd ca3d 3c86 a9bd 1d99 b5bd
00000130: d2e9 e33d 7a8c 963d 9a69 013c 4496 c13d
00000140: 026c ca3d c8af cdbd fdd6 3dbd fe54 5c3c

weight f4 [10, 84]
-0.3359513 -0.21999083 -0.02282421 0.2698359 -0.097398065 0.08904628 0.008507496 -0.19195242
0.08092669 0.054983858 -0.19506477 0.119282484 0.07668875 0.17722887 0.054847624 -0.2574091
-0.12720254 -0.01863413 0.05622733 -0.09824767 -0.30626523 -0.109416604 0.055383388 -0.10817328
-0.28441277 0.033125833 -0.07438159 -0.10032047 0.005003151 -0.101870306 0.13522321 0.09103568
0.26865995 0.07195009 -0.16840321 0.22693123 0.022436056 -0.059349556 0.07632977 0.14723256
0.08440027 -0.11160654 -0.2685448 0.04056165 0.26717198 -0.032469273 0.022554927 0.083678044
0.0467597 -0.104996316 -0.14349243 0.14247128 -0.090738475 -0.15275668 -0.08483711 -0.040648624
0.06930734 0.09044664 -0.10327473 0.068809494 -0.2702174 0.022659473 -0.009913269 0.011863697
0.050429843 -0.09236701 -0.08659315 0.16923624 -0.12553088 -0.041041315 -0.05064959 0.090577535
0.01809182 -0.16096354 -0.04225514 -0.11423535 0.011736989 0.25968546 -0.18661836 0.032912638
-0.079074584 -0.13180941 0.050485454 0.25151357 0.27159238 -0.11393488 0.08605756 0.064218044
0.18330598 -0.123239584 -0.06453862 0.27808952 -0.13578801 0.0045934874 -0.047585595 -0.17886436
0.20410487 0.08163588 0.24354981 0.123076335 0.057394058 0.15742697 -0.12796238 -0.08962727
0.18185695 -0.12376806 0.014318398 -0.08955442 0.15084025 -0.2414743 0.1648416 -0.22848706
0.06638552 0.25189754 -0.3164471 -0.23323867 -0.104500294 -0.10284731 -0.14806817 -0.0446074
0.17371133 -0.1771803 0.15544498 0.19414338 -0.013987836 -0.09897682 0.07310158 0.08998761
0.06765301 0.2148278 -0.12006028 -0.083688304 0.15871908 0.057875555 -0.15851003 0.24694517
0.10023574 0.058953177 -0.18244268 -0.0258887 -0.13992938 0.0012077151 0.13595262 0.047903083
-0.021351041 0.120927535 0.13333534 -0.05920039 -0.110561475 0.41796032 -0.016334036 0.047863044
-0.04366068 -0.040545765 -0.10642238 0.051819272 -0.09539234 0.018154927 0.04180625 -0.036495402
0.22388817 -0.23474705 -0.10812814 0.088183746 -0.084109396 -0.021867475 -0.09293491 -0.35198185
-0.07692879 -0.13476428 0.051847447 0.37995678 0.33473942 -0.13018535 0.07591417 -0.049800478
0.3163583 -0.013428054 0.35608378 0.0936102 -0.027259346 -0.1937874 -0.19062361 -0.012731984
0.13939445 0.11597157 0.17333494 0.033251964 -0.22349416 0.13034007 -0.01778082 0.071445316
0.022555508 0.07625471 -0.08385699 -0.22296593 0.03443362 -0.1753562 -0.08089289 -0.047638875
-0.38865086 0.10996406 -0.08257393 0.14149985 -0.19471474 -0.25766495 -0.12856403 -0.036471043
-0.057801854 0.04575037 -0.08523576 0.123713695 0.18322036 -0.32448632 0.011772438 -0.006443955
0.3239702 -0.019788738 -0.06722127 0.055593748 -0.09583688 -0.049278438 0.15575393 0.009338276
0.01654916 0.03584384 0.24747442 0.07186692 0.0519245 0.26410204 0.07959032 -0.35102987
-0.18785615 0.19279428 0.094438724 -0.17843388 -0.03204455 -0.09551387 0.056923695 0.12621635
0.1524256 0.1022917 0.09691647 0.0148852635 0.14260134 0.03393851 0.04979264 -0.13708152
0.06444897 0.0349673 -0.08910887 0.095985204 -0.03828703 -0.06625129 0.04992104 0.104241446
00000000: cf01 acbe 4745 61be d6f9 babc ee27 8a3e
00000010: a378 c7bd e55d b63d 0663 0b3c 2d8f 44be
00000020: e4bc a53d c136 613d 0fbf 47be 604a f43d
00000030: fe0e 9d3d 7c7b 353e e7a7 603d 20cb 83be
00000040: 6241 02be 9aa6 98bc a14e 663d 1336 c9bd
00000050: ccce 9cbe d015 e0bd b1d9 623d f489 ddbd
00000060: 8d9e 91be f4ae 073d 6055 98bd d274 cdbd
00000070: 79f1 a33b 61a1 d0bd f477 0a3e ea70 ba3d
00000080: cc8d 893e 925a 933d e471 2cbe a960 683e
00000090: d2cb b73c 8518 73bd c852 9c3d 22c4 163e
000000a0: 0cda ac3d f891 e4bd b47e 89be f923 263d
000000b0: c4ca 883e 80fe 04bd 1cc5 b83c 655f ab3d
000000c0: 1987 3f3d 4f08 d7bd aeef 12be fee3 113e
000000d0: 18d5 b9bd 3f6c 1cbe 14bf adbd 2c7f 26bd
000000e0: 02f1 8d3d 173c b93d b481 d3bd feeb 8c3d
000000f0: ef59 8abe 5ca0 b93c 446b 22bc f45f 423c
00000100: 868f 4e3d ea2a bdbd c057 b1bd 444c 2d3e
00000110: 2b8b 00be f01a 28bd f275 4fbd b780 b93d
00000120: 4c35 943c a0d3 24be ba13 2dbd 39f4 e9bd
00000130: 804c 403c 7ef5 843e e218 3fbe 67cf 063d
00000140: dbf1 a1bd 0cf9 06be d6c9 4e3d 63c6 803e
00000150: 280e 8b3e b156 e9bd f23e b03d c084 833d
00000160: 90b4 3b3e 0965 fcbd d32c 84bd c061 8e3e
00000170: 030c 0bbe f784 963b 1de9 42bd 3828 37be
00000180: de00 513e b630 a73d 1f65 793e 720f fc3d
00000190: 0816 6b3d 8934 213e 9208 03be 818e b7bd
000001a0: b538 3a3e 1c7a fdbd b797 6a3c 4f68 b7bd
000001b0: de75 1a3e 0a45 77be 3dcc 283e 83f8 69be
000001c0: 22f5 873d b7f8 803e 5b05 a2be 1ed6 6ebe
000001d0: 4004 d6bd 9ca1 d2bd 2f9f 17be 40b6 36bd
000001e0: 62e1 313e c16e 35be f82c 1f3e 86cd 463e
000001f0: 3d2d 65bc 5cb4 cabd 48b6 953d 6d4b b83d
00000200: a98d 8a3d d2fb 5b3e 2ae2 f5bd c664 abbd
00000210: 4187 223e eb0e 6d3d 7450 22be 32df 7c3e
00000220: 6548 cd3d e378 713d 41d2 3abe 8a14 d4bc
00000230: a649 0fbe 324c 9e3a 2a37 0b3e 0636 443d
00000240: 61e8 aebc dba8 f73d 0f89 083e 1c7c 72bd
00000250: 0e6e e2bd e5fe d53e f5ce 85bc 0a0c 443d
00000260: 8bd5 32bd 5113 26bd faf3 d9bd 7240 543d
00000270: 0f5d c3bd a4b9 943c 083d 2b3d 347c 15bd
00000280: f142 653e 8861 70be 4972 ddbd ae99 b43d
00000290: 8c41 acbd 6b23 b3bc a854 bebd f736 b4be
000002a0: d78c 9dbd a6ff 09be fd5d 543d b289 c23e
000002b0: f762 ab3e 4f4f 05be e378 9b3d 96fb 4bbd
000002c0: b7f9 a13e 5701 5cbc 9d50 b63e b4b6 bf3d
000002d0: fe4e dfbc 3470 46be d632 43be d099 50bc
000002e0: 6bbd 0e3e 8182 ed3d b77e 313e 3633 083d
000002f0: a7db 64be de77 053e 15a9 91bc ec51 923d
00000300: 54c6 b83c 6e2b 9c3d 37bd abbd 2e51 64be
00000310: 440a 0d3d 9390 33be 2cab a5bd fb20 43bd
00000320: 3ffd c6be d634 e13d 851c a9bd 56e5 103e
00000330: 4d63 47be a9ec 83be 4aa6 03be a962 15bd
00000340: a3c1 6cbd bd64 3b3d 1690 aebd 9b5d fd3d
00000350: 1e9e 3b3e 1223 a6be 2fe1 403c d027 d3bb
00000360: 6cdf a53e fe1b a2bc 4eab 89bd 45b6 633d
00000370: 2046 c4bd 30d8 49bd f57d 1f3e 92ff 183c
00000380: 1b92 873c fed0 123d ef69 7d3e f72e 933d
00000390: c9ae 543d 6238 873e 4000 a33d 30ba b3be
000003a0: 5d5d 40be dd6b 453e 1769 c13d 5fb7 36be
000003b0: 2541 03bd c79c c3bd d228 693d dc3e 013e
000003c0: 7515 1c3e 507e d13d 247c c63d 52e1 733c
000003d0: 1606 123e 1b03 0b3d 5ef3 4b3d 195f 0cbe
000003e0: d2fd 833d df39 0f3d b67e b6bd e493 c43d
000003f0: dcd2 1cbd c2ae 87bd 017a 4c3d 8a7c d53d

bias f4 [10]
0.081303455 0.011063543 -0.027007695 0.02896505 -0.05865248 0.030805403 -0.025079262 0.049344473
0.02482079 -0.026074564
00000000: 6d82 a63d dd43 353c 3e3f ddbc 1d48 ed3c
00000010: 953d 70bd 9d5b fc3c 0673 cdbc 6e1d 4a3d
00000020: f854 cb3c 539a d5bc
